…
2025-10-18 16:31:20.904869: I tensorflow/core/platform/cpu_feature_guard.cc:193] This TensorFlow binary is optimized with oneAPI Deep Neural Network Library (oneDNN) to use the following CPU instructions in performance-critical operations:  AVX AVX2
To enable them in other operations, rebuild TensorFlow with the appropriate compiler flags.
Model: "MS_GatedResidualSkipLSTM"
__________________________________________________________________________________________________
 Layer (type)                   Output Shape         Param #     Connected to
==================================================================================================
 input_seq (InputLayer)         [(None, 64, 75)]     0           []

 downsample_2 (Lambda)          (None, 32, 75)       0           ['input_seq[0][0]']

 downsample_4 (Lambda)          (None, 16, 75)       0           ['input_seq[0][0]']

 scale0_b1_bilstm (Bidirectiona  (None, 64, 128)     71680       ['input_seq[0][0]']
 l)

 scale1_b1_bilstm (Bidirectiona  (None, 32, 128)     71680       ['downsample_2[0][0]']
 l)

 scale2_b1_bilstm (Bidirectiona  (None, 16, 128)     71680       ['downsample_4[0][0]']
 l)

 scale0_b1_lstm_proj (TimeDistr  (None, 64, 64)      8256        ['scale0_b1_bilstm[0][0]']
 ibuted)

 scale1_b1_lstm_proj (TimeDistr  (None, 32, 64)      8256        ['scale1_b1_bilstm[0][0]']
 ibuted)

 scale2_b1_lstm_proj (TimeDistr  (None, 16, 64)      8256        ['scale2_b1_bilstm[0][0]']
 ibuted)

 scale0_b1_proj_td (TimeDistrib  (None, 64, 64)      4864        ['input_seq[0][0]']
 uted)

 dropout (Dropout)              (None, 64, 64)       0           ['scale0_b1_lstm_proj[0][0]']

 scale1_b1_proj_td (TimeDistrib  (None, 32, 64)      4864        ['downsample_2[0][0]']
 uted)

 dropout_2 (Dropout)            (None, 32, 64)       0           ['scale1_b1_lstm_proj[0][0]']

 scale2_b1_proj_td (TimeDistrib  (None, 16, 64)      4864        ['downsample_4[0][0]']
 uted)

 dropout_4 (Dropout)            (None, 16, 64)       0           ['scale2_b1_lstm_proj[0][0]']

 concatenate (Concatenate)      (None, 64, 128)      0           ['scale0_b1_proj_td[0][0]',
                                                                  'dropout[0][0]']

 concatenate_2 (Concatenate)    (None, 32, 128)      0           ['scale1_b1_proj_td[0][0]',
                                                                  'dropout_2[0][0]']

 concatenate_4 (Concatenate)    (None, 16, 128)      0           ['scale2_b1_proj_td[0][0]',
                                                                  'dropout_4[0][0]']

 scale0_b1_gate (TimeDistribute  (None, 64, 64)      8256        ['concatenate[0][0]']
 d)

 scale1_b1_gate (TimeDistribute  (None, 32, 64)      8256        ['concatenate_2[0][0]']
 d)

 scale2_b1_gate (TimeDistribute  (None, 16, 64)      8256        ['concatenate_4[0][0]']
 d)

 lambda (Lambda)                (None, 64, 64)       0           ['scale0_b1_gate[0][0]']

 lambda_2 (Lambda)              (None, 32, 64)       0           ['scale1_b1_gate[0][0]']

 lambda_4 (Lambda)              (None, 16, 64)       0           ['scale2_b1_gate[0][0]']

 multiply (Multiply)            (None, 64, 64)       0           ['scale0_b1_gate[0][0]',
                                                                  'dropout[0][0]']

 multiply_1 (Multiply)          (None, 64, 64)       0           ['lambda[0][0]',
                                                                  'scale0_b1_proj_td[0][0]']

 multiply_4 (Multiply)          (None, 32, 64)       0           ['scale1_b1_gate[0][0]',
                                                                  'dropout_2[0][0]']

 multiply_5 (Multiply)          (None, 32, 64)       0           ['lambda_2[0][0]',
                                                                  'scale1_b1_proj_td[0][0]']

 multiply_8 (Multiply)          (None, 16, 64)       0           ['scale2_b1_gate[0][0]',
                                                                  'dropout_4[0][0]']

 multiply_9 (Multiply)          (None, 16, 64)       0           ['lambda_4[0][0]',
                                                                  'scale2_b1_proj_td[0][0]']

 add (Add)                      (None, 64, 64)       0           ['multiply[0][0]',
                                                                  'multiply_1[0][0]']

 add_3 (Add)                    (None, 32, 64)       0           ['multiply_4[0][0]',
                                                                  'multiply_5[0][0]']

 add_6 (Add)                    (None, 16, 64)       0           ['multiply_8[0][0]',
                                                                  'multiply_9[0][0]']

 scale0_b2_bilstm (Bidirectiona  (None, 64, 128)     66048       ['add[0][0]']
 l)

 scale1_b2_bilstm (Bidirectiona  (None, 32, 128)     66048       ['add_3[0][0]']
 l)

 scale2_b2_bilstm (Bidirectiona  (None, 16, 128)     66048       ['add_6[0][0]']
 l)

 scale0_b2_lstm_proj (TimeDistr  (None, 64, 64)      8256        ['scale0_b2_bilstm[0][0]']
 ibuted)

 scale1_b2_lstm_proj (TimeDistr  (None, 32, 64)      8256        ['scale1_b2_bilstm[0][0]']
 ibuted)

 scale2_b2_lstm_proj (TimeDistr  (None, 16, 64)      8256        ['scale2_b2_bilstm[0][0]']
 ibuted)

 scale0_b2_proj_td (TimeDistrib  (None, 64, 64)      4160        ['add[0][0]']
 uted)

 dropout_1 (Dropout)            (None, 64, 64)       0           ['scale0_b2_lstm_proj[0][0]']

 scale1_b2_proj_td (TimeDistrib  (None, 32, 64)      4160        ['add_3[0][0]']
 uted)

 dropout_3 (Dropout)            (None, 32, 64)       0           ['scale1_b2_lstm_proj[0][0]']

 scale2_b2_proj_td (TimeDistrib  (None, 16, 64)      4160        ['add_6[0][0]']
 uted)

 dropout_5 (Dropout)            (None, 16, 64)       0           ['scale2_b2_lstm_proj[0][0]']

 concatenate_1 (Concatenate)    (None, 64, 128)      0           ['scale0_b2_proj_td[0][0]',
                                                                  'dropout_1[0][0]']

 concatenate_3 (Concatenate)    (None, 32, 128)      0           ['scale1_b2_proj_td[0][0]',
                                                                  'dropout_3[0][0]']

 concatenate_5 (Concatenate)    (None, 16, 128)      0           ['scale2_b2_proj_td[0][0]',
                                                                  'dropout_5[0][0]']

 scale0_b2_gate (TimeDistribute  (None, 64, 64)      8256        ['concatenate_1[0][0]']
 d)

 scale1_b2_gate (TimeDistribute  (None, 32, 64)      8256        ['concatenate_3[0][0]']
 d)

 scale2_b2_gate (TimeDistribute  (None, 16, 64)      8256        ['concatenate_5[0][0]']
 d)

 lambda_1 (Lambda)              (None, 64, 64)       0           ['scale0_b2_gate[0][0]']

 lambda_3 (Lambda)              (None, 32, 64)       0           ['scale1_b2_gate[0][0]']

 lambda_5 (Lambda)              (None, 16, 64)       0           ['scale2_b2_gate[0][0]']

 multiply_2 (Multiply)          (None, 64, 64)       0           ['scale0_b2_gate[0][0]',
                                                                  'dropout_1[0][0]']

 multiply_3 (Multiply)          (None, 64, 64)       0           ['lambda_1[0][0]',
                                                                  'scale0_b2_proj_td[0][0]']

 multiply_6 (Multiply)          (None, 32, 64)       0           ['scale1_b2_gate[0][0]',
                                                                  'dropout_3[0][0]']

 multiply_7 (Multiply)          (None, 32, 64)       0           ['lambda_3[0][0]',
                                                                  'scale1_b2_proj_td[0][0]']

 multiply_10 (Multiply)         (None, 16, 64)       0           ['scale2_b2_gate[0][0]',
                                                                  'dropout_5[0][0]']

 multiply_11 (Multiply)         (None, 16, 64)       0           ['lambda_5[0][0]',
                                                                  'scale2_b2_proj_td[0][0]']

 add_1 (Add)                    (None, 64, 64)       0           ['multiply_2[0][0]',
                                                                  'multiply_3[0][0]']

 add_4 (Add)                    (None, 32, 64)       0           ['multiply_6[0][0]',
                                                                  'multiply_7[0][0]']

 add_7 (Add)                    (None, 16, 64)       0           ['multiply_10[0][0]',
                                                                  'multiply_11[0][0]']

 add_2 (Add)                    (None, 64, 64)       0           ['add_1[0][0]',
                                                                  'add[0][0]']

 add_5 (Add)                    (None, 32, 64)       0           ['add_4[0][0]',
                                                                  'add_3[0][0]']

 add_8 (Add)                    (None, 16, 64)       0           ['add_7[0][0]',
                                                                  'add_6[0][0]']

 scale0_pool (GlobalAveragePool  (None, 64)          0           ['add_2[0][0]']
 ing1D)

 scale1_pool (GlobalAveragePool  (None, 64)          0           ['add_5[0][0]']
 ing1D)

 scale2_pool (GlobalAveragePool  (None, 64)          0           ['add_8[0][0]']
 ing1D)

 concat_scales (Concatenate)    (None, 192)          0           ['scale0_pool[0][0]',
                                                                  'scale1_pool[0][0]',
                                                                  'scale2_pool[0][0]']

 fusion_dense (Dense)           (None, 128)          24704       ['concat_scales[0][0]']

 dropout_6 (Dropout)            (None, 128)          0           ['fusion_dense[0][0]']

 classifier (Dense)             (None, 7)            903         ['dropout_6[0][0]']

==================================================================================================
Total params: 564,935
Trainable params: 564,935
Non-trainable params: 0
__________________________________________________________________________________________________
Epoch 1/20

Epoch 1: val_loss improved from inf to 0.20144, saving model to ms_grs_lstm_model.h5
79/79 - 52s - loss: 0.5893 - accuracy: 0.7940 - val_loss: 0.2014 - val_accuracy: 0.9234 - lr: 0.0010 - 52s/epoch - 655ms/step
…
