…
2025-10-21 10:45:06.163864: I tensorflow/core/platform/cpu_feature_guard.cc:193] This TensorFlow binary is optimized with oneAPI Deep Neural Network Library (oneDNN) to use the following CPU instructions in performance-critical operations:  AVX AVX2
To enable them in other operations, rebuild TensorFlow with the appropriate compiler flags.
Model: "model"
__________________________________________________________________________________________________
 Layer (type)                   Output Shape         Param #     Connected to
==================================================================================================
 input_1 (InputLayer)           [(None, 128, 75)]    0           []

 bidirectional (Bidirectional)  (None, 128, 512)     679936      ['input_1[0][0]']

 bidirectional_1 (Bidirectional  (None, 128, 256)    656384      ['bidirectional[0][0]']
 )

 dense (Dense)                  (None, 128, 256)     131328      ['bidirectional[0][0]']

 dense_1 (Dense)                (None, 128, 256)     65792       ['bidirectional_1[0][0]']

 multiply (Multiply)            (None, 128, 256)     0           ['dense[0][0]',
                                                                  'dense_1[0][0]']

 add (Add)                      (None, 128, 256)     0           ['bidirectional_1[0][0]',
                                                                  'multiply[0][0]']

 bidirectional_2 (Bidirectional  (None, 256)         394240      ['add[0][0]']
 )

 dropout (Dropout)              (None, 256)          0           ['bidirectional_2[0][0]']

 dense_2 (Dense)                (None, 128)          32896       ['dropout[0][0]']

 dropout_1 (Dropout)            (None, 128)          0           ['dense_2[0][0]']

 dense_3 (Dense)                (None, 7)            903         ['dropout_1[0][0]']

==================================================================================================
Total params: 1,961,479
Trainable params: 1,961,479
Non-trainable params: 0
__________________________________________________________________________________________________
Epoch 1/50
42/42 [==============================] - 29s 590ms/step - loss: 1.9840 - accuracy: 0.1592 - val_loss: 1.7933 - val_accuracy: 0.2500
…
