…
            
2025-10-18 15:28:51.094825: I tensorflow/core/platform/cpu_feature_guard.cc:193] This TensorFlow binary is optimized with oneAPI Deep Neural Network Library (oneDNN) to use the following CPU instructions in performance-critical operations:  AVX AVX2
To enable them in other operations, rebuild TensorFlow with the appropriate compiler flags.
Model: "sequential"
_________________________________________________________________
 Layer (type)                Output Shape              Param #
=================================================================
 bidirectional (Bidirectiona  (None, 128, 128)         71680
 l)

 layer_normalization (LayerN  (None, 128, 128)         256
 ormalization)

 bidirectional_1 (Bidirectio  (None, 64)               41216
 nal)

 dropout (Dropout)           (None, 64)                0

 dense (Dense)               (None, 64)                4160

 dropout_1 (Dropout)         (None, 64)                0

 dense_1 (Dense)             (None, 7)                 455

=================================================================
Total params: 117,767
Trainable params: 117,767
Non-trainable params: 0
_________________________________________________________________
Epoch 1/50
42/42 [==============================] - 4s 45ms/step - loss: 1.8114 - accuracy: 0.2396 - val_loss: 1.5800 - val_accuracy: 0.4107
Epoch 2/50
42/42 [==============================] - 1s 32ms/step - loss: 1.6698 - accuracy: 0.2946 - val_loss: 1.6022 - val_accuracy: 0.3929
…
