…
Class mapping: {'bending': 0, 'jumping': 1, 'running': 2, 'sitting': 3, 'squat': 4, 'standing': 5, 'walking': 6}
2025-10-18 15:12:40.650982: I tensorflow/core/platform/cpu_feature_guard.cc:193] This TensorFlow binary is optimized with oneAPI Deep Neural Network Library (oneDNN) to use the following CPU instructions in performance-critical operations:  AVX AVX2
To enable them in other operations, rebuild TensorFlow with the appropriate compiler flags.
Model: "sequential"
_________________________________________________________________
 Layer (type)                Output Shape              Param #
=================================================================
 lstm (LSTM)                 (None, 100, 128)          104448

 dropout (Dropout)           (None, 100, 128)          0

 lstm_1 (LSTM)               (None, 64)                49408

 dense (Dense)               (None, 64)                4160

 dropout_1 (Dropout)         (None, 64)                0

 dense_1 (Dense)             (None, 7)                 455

=================================================================
Total params: 158,471
Trainable params: 158,471
Non-trainable params: 0
_________________________________________________________________
Epoch 1/50
5/5 [==============================] - 2s 136ms/step - loss: 1.8754 - accuracy: 0.2090 - val_loss: 1.9014 - val_accuracy: 0.2353
Epoch 2/50
5/5 [==============================] - 0s 52ms/step - loss: 1.6426 - accuracy: 0.4179 - val_loss: 1.8623 - val_accuracy: 0.3235
…
